checkpoint.pth (torch_old, 36429 bytes, 8 tensors)

fc1.weight f4 [64, 37]
000000 de 4e b4 bd 8c e5 b1 3d b6 56 52 bd 06 89 80 3d
       -0.08804105 0.08686361 -0.051352225 0.06276135
000010 4e 4a 56 3d 61 3f c8 bd c6 7c 29 3e 16 40 73 3e
       0.052316956 -0.097777136 0.16551504 0.23754916
000020 8f 7c 07 3e 23 16 67 bc d0 c2 17 3f e7 c1 53 bf
       0.13231109 -0.014104399 0.59281635 -0.82717746
000030 f9 3f f2 be 03 f4 4d bf 29 c6 43 c0 84 99 1c 3e
       -0.47314432 -0.8045046 -3.0589697 0.15292937
000040 f1 db ad 3d d5 e5 c0 3c 70 87 24 3e fd ab 62 3d
       0.08489216 0.023547092 0.1606729 0.055339802
000050 d0 b6 ea 3d 99 f2 63 3d 7f 41 ab 3d 5b 35 89 3e
       0.1146065 0.05565128 0.08362102 0.2679852
000060 ea f9 44 3e cf e5 e0 bc 5c ae 65 3c ca 04 eb 3c
       0.1923596 -0.027453331 0.014018621 0.028688807
000070 02 a9 24 39 da 15 6d 3d 14 76 a2 3d 28 61 5c 3d
       0.00015703219 0.057882167 0.07932678 0.053803593
000080 9d fb 27 3d 5d e9 a6 bc 65 a5 82 3d a0 72 52 3d
       0.04101144 -0.020374948 0.06379203 0.051378846
000090 54 0d 23 3c 48 5f bc 3e 29 8c 7e bf 0b f9 24 be
       0.009951908 0.36791444 -0.9943262 -0.16110627
0000a0 67 bf 9d bd 31 95 1e bf b1 7a a1 3c 4d fd 93 bf
       -0.07702523 -0.619464 0.019711824 -1.1561676
0000b0 93 ca a0 3d 31 d7 13 bf f3 0c 0e 3f 09 1d 0d 3e
       0.07851138 -0.5775023 0.5548851 0.13780607
0000c0 33 4c 83 3d d7 13 3a bf c4 0c 21 bd 13 e2 23 be
       0.06411018 -0.72686523 -0.039318815 -0.16004209
0000d0 7a dc 8e 3d 82 99 4f bf 01 b9 84 3e 56 fa b6 be
       0.06975646 -0.8109361 0.25922397 -0.35737866
0000e0 de a1 50 bf 1d a3 1f 3d 70 70 f5 3a 9c 33 68 be
       -0.8149699 0.038973916 0.0018725526 -0.22675937
0000f0 9e a1 70 bf 69 43 51 be 71 ab 34 3d 51 ee 65 bf
       -0.9399661 -0.20435871 0.04410881 -0.89816767
000100 70 a6 5d 3d 9b 8f 69 be 95 f5 d1 3e 15 6b c6 be
       0.054113805 -0.22808687 0.41007677 -0.38753572
000110 da 83 c3 be b0 39 25 3f d2 16 8a bf 91 93 fb 3d
       -0.38186532 0.6454115 -1.0788214 0.122840054
000120 cf e5 b2 bd 2b 61 9b bd 84 18 42 be 37 d8 42 bb
       -0.08735239 -0.07586893 -0.18954664 -0.0029730925
000130 ba fc 14 3e 11 9c 35 bf 64 2c 74 3d 06 3f 89 bf
       0.14549533 -0.70941263 0.059612647 -1.0722358
000140 ca 01 5c be fd f3 c3 3e f2 14 e4 be a7 5d 0c c0
       -0.21485057 0.38272086 -0.4454723 -2.193216
000150 f6 55 8b bc b4 ee 1a be b1 9a ab bd 4d 5b b0 be
       -0.017008763 -0.1513012 -0.083791144 -0.34444657
000160 68 bf c3 be c6 7d 64 3d db 68 77 bd 91 cf 03 bd
       -0.3823197 0.05578401 -0.060402732 -0.032180373
000170 f1 07 53 3b 7e 34 ac 3e 31 d1 ff be 5d b2 c4 be
       0.0032200778 0.33633798 -0.49964288 -0.3841733
000180 98 82 d4 3e ac ad 63 bf 89 43 60 be ea d7 1e 3b
       0.41505885 -0.8893688 -0.21900763 0.0024237582
000190 71 3b a5 bd e9 45 93 3d 57 ff fa be 83 83 de bd
       -0.08067978 0.07191069 -0.49022934 -0.108649276
0001a0 d4 2f 0d bf a2 40 03 be 44 b1 41 3e b4 ab 5a bf
       -0.55151105 -0.12817624 0.18915278 -0.8541825
0001b0 d8 db 3d bf 7c 38 29 3a 0f 78 93 bb 60 ad b4 3d
       -0.7416358 0.0006455255 -0.004500396 0.08822131
0001c0 9f 1f df 3d e3 a3 fe 3d 20 f2 91 bd b2 96 4d be
       0.10894703 0.12433603 -0.0712626 -0.20077017
0001d0 88 74 27 3e 74 e6 b1 3d 15 c1 0e be 22 d3 31 3d
       0.16353047 0.086865336 -0.13940842 0.043414243
0001e0 72 29 6d 3e 7c 02 d8 3e 4a bf 27 bf 39 30 c9 be
       0.23160341 0.42189395 -0.6552626 -0.39294603
0001f0 b9 b4 81 bf 46 fe 41 c0 99 27 00 be 7d fa e8 3d
       -1.0133277 -3.0311446 -0.12515105 0.11375902
000200 ba 8f ae 3d fa 34 de bd 29 bd d0 3d b4 7c fe bd
       0.085235074 -0.10849948 0.101923294 -0.12426129
000210 c7 c8 a5 3d 73 9f 66 3e dc 2b f5 3d be b0 1a 3e
       0.08094936 0.22521763 0.11971256 0.15106484
000220 85 99 43 3d dd d5 e4 3d 6f 32 99 bd ba 47 0c 3d
       0.04775383 0.11173604 -0.074803226 0.03424809
000230 8b 31 bf 3d e6 85 80 3d 34 b3 b1 3d 22 2f fb bd
       0.093356214 0.06275539 0.086767584 -0.12264849
000240 28 ff b8 3e 98 21 78 bd 01 15 45 bd 3c 0b 08 3c
       0.3613217 -0.060578912 -0.048115734 0.00830346
000250 16 e6 e9 3e 9f 39 51 bf 43 35 5f bf f7 56 58 bf
       0.45683354 -0.8172855 -0.87190646 -0.845077
000260 3a 1a 5a c0 d1 12 c4 3d 46 e5 08 3e 57 7e 43 3e
       -3.4078507 0.095739014 0.13368711 0.19091164
000270 87 ca a8 3b 5c 76 08 3d 2e 47 c3 bb bc fd b3 3c
       0.0051510963 0.033316 -0.005959413 0.021971576
000280 82 1e 8b 3c a9 8a c6 3d 29 24 14 3c c0 42 cb bd
       0.01698232 0.09694416 0.009041824 -0.09924841
000290 83 4f 2b bc 48 12 37 bd 11 cb 5e 3e 87 42 63 3e
       -0.010455969 -0.04469517 0.21757151 0.22193347
0002a0 e2 46 74 bd d7 43 53 3d eb 9f 0a 3e 77 dc aa 3d
       -0.05963791 0.05157837 0.13537566 0.083428316
0002b0 36 de ba 3d 6b 17 1a 3d b2 00 06 3e a0 e3 2e 3e
       0.091244146 0.03761999 0.13086203 0.1707902
0002c0 dc 28 88 3e c3 f9 0f 3e ac 8c 2d 3d 20 b9 72 bd
       0.26593673 0.1406012 0.042370483 -0.05925858
0002d0 99 0a e9 3d e4 4d b2 3c b4 33 00 3d bc 62 64 bc
       0.113789745 0.021765657 0.031299308 -0.013939556
0002e0 4c 22 0a 3c 4f b4 8f 3e df a3 8c bf 24 0a 98 3b
       0.008431029 0.28067252 -1.098751 0.0046398807
0002f0 22 e0 67 be 66 23 4a bf 62 e6 8d 3e b0 50 e9 be
       -0.22644094 -0.78960264 0.2771483 -0.45569372
000300 02 5d 8b bf a1 6f 55 be 38 23 04 bf 46 86 be 3c
       -1.0887759 -0.20843364 -0.5161624 0.023257386
000310 93 fe ca be 1d 66 c2 bd 6c f6 11 bd 04 e5 da be
       -0.3964735 -0.09492133 -0.035635397 -0.4275285
000320 bb 17 ab 3d 6a 95 4a be 24 fd 6b be 61 f9 98 be
       0.083541356 -0.1978356 -0.23045784 -0.2987776
000330 56 5f b2 3d 6f 02 3a 3e 23 b8 5a be 9a c7 24 3e
       0.0870959 0.18164991 -0.21359305 0.16091767
000340 dd 94 f8 3d 9a 31 7f be cd 4e 9a be 85 c7 8c bd
       0.121377684 -0.24921265 -0.30138245 -0.06873993
000350 91 fb b5 3e a2 6a 82 3e 40 34 57 3d 69 8c 10 bd
       0.35543492 0.2547198 0.052540064 -0.035290156
000360 44 54 61 be e6 cf 85 3d bb 98 27 3d 6b 88 a9 be
       -0.22004801 0.06533794 0.04091714 -0.3311189
000370 8b ca ce 3d d1 7f 41 3d a8 21 7f be ae fb 9f 3d
       0.10097226 0.047241036 -0.24915183 0.07811676
000380 42 34 7c 3d 60 31 27 bc e3 78 31 be ef e7 8f be
       0.061573274 -0.010204643 -0.17331271 -0.2810664
000390 22 c6 12 be a0 8a 02 3d 70 53 09 3e c2 a2 9b 3e
       -0.14333394 0.031870484 0.13410735 0.30397612
0003a0 22 7d 95 3c f2 59 bf 3d b1 95 a8 3d 9e 3a 6e be
       0.018248145 0.093433276 0.08231676 -0.23264548
0003b0 c4 20 bc 3b e6 84 21 be e5 a8 f0 3d e5 f4 ae bd
       0.0057412107 -0.15773353 0.11750964 -0.08542804
0003c0 64 a3 39 3e 4c f6 a6 3e dc 3d 89 bc 38 96 a7 3e
       0.18128735 0.32609785 -0.01675313 0.32731795
0003d0 75 ba ae be cf 98 15 3d 96 90 d0 3e f9 c3 1c bf
       -0.3412663 0.036522683 0.4073531 -0.6123653
0003e0 ae 53 86 3c 42 5b c8 3d c7 33 1e 3f 4b 21 a1 be
       0.016397323 0.09783031 0.61797756 -0.31470713
0003f0 9c 81 b8 be d7 c6 1c 3d 24 28 85 bb f7 1a 49 3e
       -0.36036384 0.038275566 -0.004063623 0.19639193

fc1.bias f4 [64]
000000 4e f4 02 3e cf 2d 86 bd 56 9e d5 bc 8b 71 8f bd
       0.12788507 -0.06551706 -0.026076477 -0.070040785
000010 e9 6a ea 3d d7 27 37 be 65 35 c0 bd 4d d7 35 bc
       0.11446173 -0.17886291 -0.09385184 -0.011098695
000020 5f ef 2f 3c 7b 9d c1 be c0 99 81 3d fd 6e 03 3e
       0.010738223 -0.3781546 0.063281536 0.12835307
000030 5b a6 14 3c af 11 09 bb 2b 25 9f be 86 38 94 be
       0.009072865 -0.0020915081 -0.31083044 -0.28949374
000040 40 4c fa bd ed f3 08 be ce de da bd 40 94 85 be
       -0.12221575 -0.133743 -0.10687028 -0.26089668
000050 f0 05 53 be 98 15 1d be 51 93 54 bd 16 17 08 be
       -0.20607734 -0.15340269 -0.051898304 -0.13290057
000060 05 d2 84 bd a3 7b d8 3d ee 86 da bd 5d f1 ac bd
       -0.064853705 0.10570457 -0.10670267 -0.08444474
000070 28 72 89 bd 01 25 e6 3d 62 98 cd 3c bf 00 81 be
       -0.06711227 0.11237527 0.025097076 -0.25195882
000080 d1 5f 39 be bc 69 5c be 8b 40 51 be 3f 81 c4 bd
       -0.18102957 -0.2152471 -0.20434777 -0.09594964
000090 97 a0 c0 bd a2 49 57 bd ce f3 a5 bc 86 ab 99 be
       -0.0940563 -0.052560456 -0.020257857 -0.30013674
0000a0 8a a8 e8 bd ec 9e 5e bd 7c af 00 be 5c e0 f2 3c
       -0.11360271 -0.05435078 -0.12566942 0.029647999
0000b0 0e b5 19 be 17 c2 09 be 54 2f cd bd ae 66 17 be
       -0.15010473 -0.13452946 -0.10018793 -0.14785263
0000c0 02 59 97 be ed 4d 16 bd 8f c8 85 be 77 55 60 3e
       -0.29560095 -0.03669541 -0.26129577 0.21907602
0000d0 46 b0 2d be a0 a5 1c be 83 25 2c be 11 b7 04 be
       -0.16961774 -0.15297556 -0.16811185 -0.1296046
0000e0 aa 64 ab 3d f6 9d 36 be 74 f7 e2 bd 2a 12 7c be
       0.083688095 -0.17833695 -0.11082354 -0.24616304
0000f0 2f 4c fe bd fc ea d0 bd 61 8c 06 bd 1e 9d 78 3d
       -0.124168746 -0.1020107 -0.03284872 0.060696714

fc2.weight f4 [64, 64]
000000 79 3f 2c 3d a6 73 7a 3e 44 a6 f9 be 63 f2 04 be
       0.04205272 0.24458179 -0.48759663 -0.12983088
000010 ca aa f6 bd 2b 19 38 bf 1b 1d 73 bf f1 b8 a2 3d
       -0.12044294 -0.71913403 -0.94966286 0.07945431
000020 99 36 90 be 87 2a 89 be a6 6e 43 be c1 cc 19 3d
       -0.28166655 -0.26790258 -0.19085178 0.037548784
000030 b6 fa e8 be 04 64 66 3e 66 6d dd be f5 0a 08 bf
       -0.45503777 0.2249909 -0.43247527 -0.5314172
000040 b1 69 d6 bc 9c cb d3 3c ad a4 4d be 3e 08 a8 be
       -0.026173444 0.025853924 -0.2008235 -0.32818788
000050 46 02 a4 be a6 bd 26 bf 6b 1a d9 be bf 75 30 bf
       -0.32032984 -0.6513313 -0.42402968 -0.68929666
000060 21 d0 ab be 84 ce a9 3e f9 72 a6 bd 6a 78 3c be
       -0.33557227 0.3316537 -0.08127398 -0.1840531
000070 6d bb 28 3e 91 3c 54 be 45 31 1b 3e 1d 0e eb bc
       0.16477747 -0.20726229 0.15155514 -0.028693253
000080 36 55 93 be f3 df ad 3c 92 7f 7a be d5 d0 44 3e
       -0.28775948 0.021224951 -0.24462727 0.19220288
000090 7a a8 a7 be 53 e6 7e be fd 8f a8 bd 78 61 07 3f
       -0.32745725 -0.24892549 -0.082305886 0.528831
0000a0 3a 06 3f bf da de de be 4e fb 14 be 32 b6 62 b9
       -0.74618876 -0.43529397 -0.1454899 -0.00021620913
0000b0 89 31 a2 be 91 19 ba be 56 2d 41 bf bb 82 c1 bb
       -0.31678417 -0.3634763 -0.754598 -0.005905477
0000c0 e1 1c 4f bf 1e 73 13 3e 01 02 ca 3d 63 05 37 be
       -0.8090344 0.14399382 0.098636635 -0.17873149
0000d0 88 c1 34 bf dc 5e 9b be 20 35 f5 3e b5 6a fe be
       -0.70607805 -0.3034581 0.47892094 -0.49690786
0000e0 fb 18 e2 be 8d 73 d4 be 40 49 dc be 94 80 c5 3d
       -0.44159684 -0.41494408 -0.43024635 0.09643665
0000f0 70 7a d3 bd d7 85 3e 3c 2f d2 b4 be 16 6c 09 bf
       -0.103260875 0.01162859 -0.35316607 -0.5368055
000100 a4 fb 11 3f 46 27 0a 3f 61 3e 21 be 1d 17 4e bc
       0.570246 0.53966177 -0.15746452 -0.012578753
000110 86 4a 64 bd 41 40 fb 3d d8 c3 b6 be 61 0c df 3d
       -0.055735134 0.12268115 -0.35696292 0.10891033
000120 50 3f 79 bf b1 28 36 be 80 ab 79 bd d0 2a a6 be
       -0.9736223 -0.1778896 -0.06095457 -0.32454538
000130 78 b3 ee 3c 0b 09 09 be 68 68 14 bc bb 7e 88 be
       0.029138312 -0.13382356 -0.0090580955 -0.26659188
000140 02 2f 9c be 29 ee 74 be 32 a5 5e 3e 8c 0e d8 3b
       -0.30504614 -0.23918976 0.21742705 0.006593531
000150 80 0b 7e bc 58 95 bb 3d a9 ae f2 be 41 80 63 3e
       -0.0155056715 0.091593444 -0.4739888 0.22216894
000160 5e 8d 1c bf c6 37 2c 3e ec 12 ab be 66 1e 93 3e
       -0.6115321 0.16818151 -0.33412874 0.2873413
000170 f8 25 b2 bc 5a 15 92 be 7b db 8a be 1a 96 fb be
       -0.02174662 -0.28531915 -0.27120575 -0.49137956
000180 6b 41 15 bf a4 f6 f5 bc ab 24 1b be c6 1e 27 be
       -0.58302945 -0.030024834 -0.15150706 -0.16320333
000190 4d b0 27 3d d4 4b 1d be 10 0a bd bc bf 65 32 3e
       0.040939618 -0.15360957 -0.023076087 0.17421626
0001a0 12 16 b5 be 61 e4 d2 bd 6d 93 a3 3d 62 92 cf bd
       -0.353684 -0.10297466 0.079871036 -0.10135342
0001b0 fc cf 14 bf 82 b7 43 3e 81 7c 3b be b9 13 73 3d
       -0.5812986 0.19112971 -0.18309213 0.05934498
0001c0 0d a0 51 3e 8d 96 0c be d4 24 11 3d c4 ba b0 be
       0.20471211 -0.13729306 0.035435513 -0.3451749
0001d0 4d 7d 85 be 81 5a 0a 3e 91 4e 4d 3e 4b 3c fc bd
       -0.2607216 0.13511087 0.20049502 -0.123161875
0001e0 eb b5 8a be af 4f bf bd 10 cd 6c be c5 9e c4 3e
       -0.27091917 -0.0934137 -0.231251 0.38402382
0001f0 a7 02 7a bf 36 b2 db be 24 aa 35 3c c8 88 4a be
       -0.976603 -0.42909402 0.011087928 -0.1977874
000200 4d 06 36 bd b6 d3 c6 3e 02 cc 6b bd 27 5c 3a 3e
       -0.044439603 0.38833398 -0.057567604 0.18199216
000210 80 cb b1 3d 28 d0 32 3d 8b 01 10 bf 81 52 c0 bd
       0.08681393 0.043655545 -0.56252354 -0.09390736
000220 26 80 7e 3b 8f 71 0f bf 13 a1 52 be d8 2e 65 be
       0.0038833707 -0.5603265 -0.20569257 -0.2238115
000230 55 ad b5 bd aa a8 b2 3e 0d 1c 15 3e 1b ee 28 be
       -0.08870951 0.34894305 0.14561482 -0.1649708
000240 88 97 37 3e 4c aa 6c be 16 12 27 3e 43 9f 09 3f
       0.17928898 -0.23111838 0.16315493 0.5375864
000250 87 fa bb 3e 2b db f8 3e c4 22 6f be 34 40 75 3d
       0.36714575 0.48604712 -0.23353106 0.059875682
000260 9a 64 28 3c 57 ac f5 3e ec 8a 5d be 3e a0 b9 be
       0.0102778915 0.47983047 -0.21635026 -0.36255068
000270 8e be 0f bf 9a c9 b5 3e 10 0c 99 3d 3c ee ac be
       -0.5615014 0.35505372 0.07473004 -0.33775508
000280 d4 91 c2 be d7 de 08 3e f6 27 de 3d 9e a9 b6 3e
       -0.38001883 0.13366257 0.10847466 0.35676283
000290 a1 e0 5d be 55 c0 0f 3e c8 c5 e8 3e 29 4d e2 3d
       -0.2166772 0.14038213 0.45463395 0.110498734
0002a0 9b b9 0f 3f ff b2 45 be 70 55 39 3e dd 68 cb be
       0.56142586 -0.19306563 0.18098998 -0.39728442
0002b0 05 03 91 be 7e ec d1 3d 84 8b 82 bb 8b d8 c1 be
       -0.28322616 0.102501854 -0.0039839167 -0.37860522
0002c0 3a 4c 49 be 64 29 8c be a3 3b d9 be 2a 6f 8e be
       -0.19657984 -0.2737533 -0.42428312 -0.27819186
0002d0 76 bb ef 3e 41 43 86 3e db 72 23 3e 8c 48 0e be
       0.4682271 0.26223186 0.15961783 -0.13894862
0002e0 02 c6 05 bf 32 02 6d 3e 69 fb 7b be 83 8f a1 be
       -0.5225526 0.23145369 -0.24607624 -0.31554803
0002f0 66 13 a2 bd 78 f0 45 bd 81 56 8f 3b 34 91 b2 3e
       -0.07913856 -0.048325032 0.0043743257 0.34876406
000300 87 06 ac 3d ab bc b2 be b2 4e f7 bd b0 4f 92 be
       0.083996825 -0.34909567 -0.12075557 -0.28576422
000310 12 e5 3c bf 6c c2 e4 bd 9c 8c 69 be 28 b4 36 bf
       -0.73787034 -0.111698955 -0.22807544 -0.71368647
000320 6b a2 01 bd 9e 84 2b bf 73 3d 67 bf 5a 47 0a 3e
       -0.031649034 -0.6699923 -0.9032814 0.13503781
000330 cf cf 13 bf 30 51 05 bf 1d 3d 1d be 07 1a c9 be
       -0.57738966 -0.5207701 -0.15355344 -0.3927767
000340 10 c3 94 bc d5 bd 7c be e7 67 82 3e 7c 2c 4e 3e
       -0.01815942 -0.2468179 0.25469896 0.20134157
000350 99 50 54 be 24 14 97 3e 91 a6 b4 be 8d cd 52 bd
       -0.2073387 0.29507554 -0.3528333 -0.05146556
000360 30 de 92 3e 6f fd df bd 18 d0 87 be 23 90 1f bf
       0.2868514 -0.109370105 -0.2652595 -0.6232931
000370 ff 42 4f be a9 97 de be dd 4a c0 3e 98 4d 8d be
       -0.202404 -0.43475083 0.37557116 -0.27598262
000380 aa 1e e4 bc 0c 03 dc bd a7 d8 12 bf 31 0d b8 3e
       -0.027846653 -0.10742769 -0.57361835 0.35947564
000390 20 54 0e be 9d d2 43 3c 58 28 86 bf 79 4c 27 be
       -0.13899279 0.01195207 -1.0481062 -0.16337766
0003a0 c1 21 b6 be 2c cc dc be b9 5d db be d4 7c c7 3d
       -0.35572627 -0.4312452 -0.42844942 0.09740606
0003b0 b3 39 cb be 29 93 23 3e 4d a5 ad be dc 99 49 3e
       -0.3969246 0.15974106 -0.33915177 0.19687599
0003c0 ae 7e 5f be 04 60 89 be 3a 4a fd be b0 7a 31 bf
       -0.21825668 -0.26831067 -0.49470693 -0.6932783
0003d0 e9 34 9d be 05 f1 22 bf 3c 78 d9 be f0 e2 0c 3e
       -0.3070443 -0.63649017 -0.42474544 0.13758445
0003e0 76 e9 52 be 23 7b 89 bf 16 bf 0c bf 54 17 21 bd
       -0.20596871 -1.0740703 -0.54979074 -0.039328888
0003f0 aa d8 95 bd cc 78 18 3e 9b 81 84 bf e5 5a 77 3b
       -0.07316716 0.1488983 -1.0352052 0.0037743386

fc2.bias f4 [64]
000000 ce 7d 86 be 55 2f 16 be 71 e3 05 be 98 df bb 3b
       -0.26267856 -0.14666493 -0.13075043 0.0057334416
000010 d6 25 7f be d3 c4 af be 57 d3 9a be b7 fd ff 3d
       -0.24916777 -0.34329852 -0.30239365 0.12499564
000020 15 2d f9 3d 27 b6 36 be 9a a7 10 bf f0 03 8f 3e
       0.12166802 -0.17842923 -0.5650574 0.27932692
000030 52 dd 0f 3f 7b 24 92 be 87 68 0e be e8 f4 1a be
       0.56197083 -0.28543457 -0.13907062 -0.15132487
000040 52 27 f1 bd 33 25 3d be 82 4e b6 be 50 da fb bd
       -0.11775078 -0.18471222 -0.35606772 -0.12297499
000050 f9 f7 6e 3e e4 59 f8 bd 3a 17 d2 bb 2d ce f8 be
       0.23336782 -0.1212652 -0.00641146 -0.485948
000060 05 d9 61 3d e0 46 50 be d9 fd 24 3f c2 84 7a be
       0.055138607 -0.20339537 0.6444984 -0.24464706
000070 c3 8a 04 be 8b c6 21 bd 57 68 71 be 70 d6 3d be
       -0.12943558 -0.039495986 -0.23574959 -0.18538833
000080 a4 57 4c be 20 7e 60 3e a0 bf 03 3d 59 86 42 be
       -0.19955307 0.21923113 0.03216517 -0.18996562
000090 94 38 cd bd 47 a9 75 bd 71 29 c3 3e 64 e4 99 bd
       -0.10020557 -0.05997589 0.38117555 -0.07514265
0000a0 d4 c4 17 be 4d 16 2b 3e 30 07 2f be fa 04 36 3e
       -0.14821178 0.16707726 -0.17092586 0.17775336
0000b0 58 43 4b be db 35 1c be f2 fc 1b bf bf 86 99 be
       -0.19849908 -0.15254919 -0.6093284 -0.29985616
0000c0 31 93 57 be 27 49 04 be d7 13 38 be 2e 2b 18 3c
       -0.21052243 -0.1291853 -0.17976318 0.009287639
0000d0 42 cc 9f bd b9 13 bf be 90 bc 38 be 27 42 dd bc
       -0.07802631 -0.37319735 -0.18040681 -0.027009083
0000e0 db 86 d2 be 6d dd ea be fc 98 a7 be 7a 13 ff be
       -0.41118512 -0.4587206 -0.32733905 -0.49819547
0000f0 60 6e dc 3c 47 0c ed 3c 96 33 55 be ed bc 84 be
       0.0269081 0.028936518 -0.2082046 -0.2592539

fc3.weight f4 [32, 64]
000000 c6 a4 5c 3e ed bf f3 3d 51 6c 97 be 5b 76 7d bf
       0.21547231 0.11901841 -0.29574826 -0.9900872
000010 ae 32 69 bf 6e fe 05 bd 1f 7d 57 3e e2 05 ed 3e
       -0.91092956 -0.032713346 0.21043824 0.4629355
000020 d2 29 1d bf 6a 95 38 be d5 55 1e 3e 30 10 66 bd
       -0.6139194 -0.18025747 0.1546243 -0.05616778
000030 44 e1 6a bd 95 03 59 3e af 5f 9a be 68 08 aa bc
       -0.057343736 0.21192773 -0.30151126 -0.020755962
000040 4e 78 f5 be 0c 7f 43 3f 8b d2 b9 3e b3 58 14 3f
       -0.47943348 0.76365733 0.36293444 0.57947844
000050 6b d2 2d bf 28 74 89 3b 09 58 e0 3e e8 20 2d bf
       -0.678992 0.004194755 0.43817165 -0.67628336
000060 89 5b e7 be cd a4 d4 bd 15 7a 3e be 63 63 32 3f
       -0.45187023 -0.10382996 -0.18601258 0.696829
000070 ec a3 f3 bd b1 62 19 3e 89 00 1b 3f 94 2d 0d 3e
       -0.118965 0.14979054 0.6054769 0.13786918
000080 b9 36 56 be cc 28 97 3e f5 f1 d8 be 52 87 31 be
       -0.20919313 0.29523313 -0.423721 -0.17336777
000090 4a ff 5e 3d 85 fc 36 bf 8b 24 9b bd 29 68 19 3d
       0.05444268 -0.71479064 -0.075753294 0.03745285
0000a0 b7 2f 14 3c e6 50 a1 bd 96 78 a5 3c ee 5f 43 bb
       0.009044579 -0.07876758 0.020199101 -0.0029811817
0000b0 41 d8 80 3e 6c 8c f7 bd a1 9f 61 3b 36 70 e3 be
       0.2516499 -0.1208733 0.0034427422 -0.44421548
0000c0 50 47 97 be 57 ef 09 3f cf 82 9c 3d e6 4c 9d bd
       -0.29546595 0.5388083 0.07642137 -0.07680683
0000d0 96 b8 10 3f 49 4b 3b bf ab cd 11 3f 48 be 3f 3e
       0.56531656 -0.7316175 0.5695445 0.1872493
0000e0 82 ad 3c be 0c 17 49 3e e9 c5 c5 3d 60 ee cd be
       -0.18425563 0.19637698 0.09656889 -0.40220928
0000f0 89 de be bd e8 1d 79 3e 10 51 ea be 4f 0e 19 3f
       -0.09319789 0.24327815 -0.4576497 0.5978746
000100 d3 d0 4f be 66 3a 8f 3d 9f 9d 82 3e fe 37 63 bf
       -0.20294504 0.069935605 0.2551088 -0.8875731
000110 dd e2 04 3e f5 34 93 be 75 7c f8 bc 4a 83 3d bd
       0.12977166 -0.2875134 -0.030332783 -0.046267785
000120 bf 17 24 3f ed f8 6c bd b0 c3 dd 3e ed 0d 18 bf
       0.64098734 -0.05785458 0.4331336 -0.5939625
000130 3f d2 be be 01 2b ed bd d3 88 2e 3e 00 43 78 3f
       -0.3726978 -0.11580468 0.17044382 0.96977234
000140 11 38 e1 be 8d 1a 22 be 26 b2 23 bf 19 ff 92 3e
       -0.43988088 -0.15830441 -0.6394371 0.2871025
000150 a7 33 4c bc 53 22 f9 bc 72 90 bf be 97 0d 3d bf
       -0.012463487 -0.030411875 -0.3741489 -0.7384886
000160 de 3a 91 3d c8 e2 88 bd bb fb a7 bd 44 1a 74 be
       0.07091306 -0.0668388 -0.08202311 -0.23838145
000170 cc 9a 2e bf 75 2e a6 be 57 e4 0f 3f bb 8e 3f 3f
       -0.6820495 -0.3245732 0.56207794 0.74827164
000180 42 d6 3c bf 4a 94 3f be 6a 48 53 be 80 70 3f be
       -0.7376443 -0.18708912 -0.20633093 -0.18695259
000190 13 34 bb be 9a 54 af bf 7a bb 67 be 6c 0c f6 be
       -0.36563167 -1.3697693 -0.2263011 -0.48056352
0001a0 cb 8b 97 be 1e b2 07 3c 47 1c f2 be 7c 20 f7 bd
       -0.2959884 0.008282213 -0.472872 -0.12066743
0001b0 3a 97 a1 bf ca 0a 31 bf be b0 0d 3f 3f a6 26 3e
       -1.2624276 -0.6915709 0.5534781 0.16274355
0001c0 58 04 0e 3f 3a 9a 92 3e 07 8b a4 bd ea be 0c bf
       0.5547538 0.2863329 -0.0803433 -0.5497881
0001d0 09 25 0c 3f 47 5e 34 bf 13 ab 15 be f9 37 af bd
       0.5474401 -0.70456356 -0.14616041 -0.08555598
0001e0 1e 4a b5 be 04 d4 a3 3e 2f eb c0 be 0e 70 ee bd
       -0.3540811 0.31997693 -0.3767943 -0.116424665
0001f0 5e e0 a3 be cc 3b 8d be 79 09 60 3e 97 19 2f be
       -0.32007116 -0.27584684 0.21878614 -0.17099606
000200 0a 71 c8 be 82 03 13 3e 15 31 92 3e 45 6f 34 3e
       -0.39148742 0.14356807 0.28553072 0.17620571
000210 ab 40 16 3e 0a 28 a0 be ee eb 36 3f a7 16 61 3e
       0.14673106 -0.31280547 0.7145375 0.21981297
000220 a7 76 7a 3d e4 5e 49 3b 24 aa 26 be 98 83 cf bd
       0.061148312 0.0030726725 -0.16275841 -0.101325214
000230 13 11 2c 3e 3b da 45 be ac 55 21 bf 00 50 2b 3f
       0.16803388 -0.1932153 -0.6302135 0.66918945
000240 e6 0a 42 3f a9 9e 9d be d4 28 78 bb f9 65 1b 3e
       0.7579788 -0.3078511 -0.0037866132 0.15175618
000250 4c 0c 29 be be 8c 25 3e 50 87 18 3e fa f1 a9 bc
       -0.16508597 0.1616697 0.14895368 -0.020745266
000260 01 94 a8 3e 43 98 9e bd 53 3b 9e 3d f6 5f c4 be
       0.32925418 -0.07743885 0.07726159 -0.38354462
000270 e7 93 6f 3e a6 ed 70 3e b1 79 82 3e 37 e2 8f 3e
       0.23396264 0.23528156 0.25483468 0.28102276
000280 94 cd 4f be b1 9f a7 bd 6a 54 e2 bc 89 f9 db 3e
       -0.20293266 -0.081847556 -0.027628142 0.42963818
000290 78 ec 1e be 1e 3c 97 be 31 6a 6b 3d 39 79 3d 3e
       -0.15519893 -0.29538053 0.05747432 0.18503274
0002a0 ab ab 02 be db 5f 48 3c e5 40 c0 3e 75 57 c8 bd
       -0.12760799 0.012229885 0.3754951 -0.09782306
0002b0 7a 08 7d 3d 0e af 7e 3d 03 1d fd 3e c4 7a 84 3c
       0.061775662 0.062178664 0.49436197 0.01617182
0002c0 52 16 e0 3e ad 2a 0e bf 60 e4 2a bd 27 fb b7 3d
       0.4376703 -0.5553387 -0.0417217 0.089834504
0002d0 82 05 1a bf da d4 c2 3e 17 f0 f0 3d aa 3c 93 3c
       -0.60164654 0.38053018 0.117645435 0.017973263
0002e0 22 83 94 be 0e 07 b4 3d 7f c3 e9 3c b4 fb 90 bd
       -0.29006296 0.08790408 0.028535603 -0.070792586
0002f0 f0 c2 fc bd 3e 2c 28 3e dd d7 94 be 66 79 81 bc
       -0.12341869 0.16423127 -0.2907094 -0.015804958
000300 a2 55 b0 bd aa 76 8a bc b7 4e 0f bf 47 84 b8 be
       -0.08610083 -0.016902287 -0.55979484 -0.3603842
000310 14 1d c5 be 21 95 2c be 25 e6 ba be dd 68 5e be
       -0.38498747 -0.16853763 -0.3650371 -0.2171969
000320 60 b9 8f bd f4 ab 0a 3f 3d 22 53 3e 34 50 fb 3d
       -0.07017779 0.5416863 0.2061853 0.12271157
000330 52 92 7d bd ed ea 20 bb 88 b4 7a 3e 09 30 a6 be
       -0.06190712 -0.002455409 0.2448293 -0.32458523
000340 e4 98 ac 3b 9b a4 b6 be 3e 16 fc be 62 c3 f5 bb
       0.0052672494 -0.3567246 -0.4923572 -0.007500098
000350 87 7e b3 be ad c7 ae 3e ea 58 52 be 85 44 46 be
       -0.3505747 0.34136716 -0.2054173 -0.19362076
000360 c7 92 92 be 84 73 ca bd 80 0b 0b be 65 4a 84 3d
       -0.28627607 -0.09885314 -0.13578606 0.06459502
000370 0b c2 d4 3e 5e 6d 38 bf 30 52 0f be aa ff 95 bd
       0.41554293 -0.7204188 -0.13996196 -0.07324155
000380 42 2f bf 3d bc 33 16 bf df e6 1e bf d2 1d 37 3e
       0.093351856 -0.5867269 -0.6207103 0.1788247
000390 67 f7 06 bf 9a 62 bb be fa a3 fd be cb e6 51 bf
       -0.52721256 -0.36598665 -0.49539167 -0.8199279
0003a0 1e b2 99 be d0 35 22 3e fd 3f f8 3c fe a7 31 3d
       -0.30018705 0.1584084 0.03030395 0.0433731
0003b0 c2 96 16 be 16 4c af be fe 1b e1 3d d3 74 de 3d
       -0.14705947 -0.34237736 0.10991667 0.10862126
0003c0 4f e2 b9 bb 5b ba 8f 3e 09 47 74 bd 5a 65 af 3e
       -0.00567273 0.28071865 -0.059638057 0.34257013
0003d0 cc 67 03 bf bb a8 e6 be 2f 03 d2 3d d9 16 18 bf
       -0.51330256 -0.45050606 0.102545135 -0.5940986
0003e0 d3 cc 23 3d 93 0c 02 3e 54 cf 81 be 85 f8 66 be
       0.039990257 0.12700109 -0.2535349 -0.2255574
0003f0 5b ac fa be dc f6 04 ba eb fe ed bd 38 5b 14 be
       -0.48959622 -0.00050721853 -0.11620887 -0.14487922

fc3.bias f4 [32]
000000 44 d8 e2 3d fe 78 11 bc 1b 84 46 3f 9d 3a 93 be
       0.11076406 -0.008878944 0.77545327 -0.28755656
000010 1a 01 17 3b c0 d9 26 3c 8b 2e a2 3d 3a cc e2 bc
       0.0023041428 0.010183752 0.079190336 -0.027685273
000020 41 42 b9 3d 09 ca b9 bd 90 26 6b 3f 67 48 9a be
       0.0904584 -0.09071738 0.91855717 -0.30133364
000030 24 84 65 3f 99 63 64 3c 96 ef 5e bd e7 ec d1 bd
       0.89654756 0.013939762 -0.054427706 -0.10250264
000040 cc 72 f3 bd ff 6c 82 bd ff 08 81 bd e4 06 45 3f
       -0.1188713 -0.063684456 -0.06300544 0.7696364
000050 47 75 41 3f 54 80 61 3e 50 59 6a be b8 87 48 3e
       0.75569576 0.2202161 -0.22885633 0.19583023
000060 cc 8b 9f 3e 05 4c ee 3e e7 5a 4b 3f ae 38 3a 3f
       0.31161344 0.46542373 0.7943558 0.72742736
000070 9a ee 2c 3f 82 17 40 be c0 e4 9b be 0e f9 36 3f
       0.6755158 -0.18758968 -0.3044796 0.7147378

fc4.weight f4 [4, 32]
000000 25 d7 8a 3e ab 26 53 bf 4c 32 01 3e 2e a1 da 3c
       0.27117267 -0.8248088 0.12616843 0.026688185
000010 43 9e a0 3d 47 87 26 3e 4c 87 c4 3e e2 19 34 3e
       0.07842686 0.16262542 0.38384473 0.17587999
000020 14 0a 28 be e0 a7 be be 12 ce c5 3e 23 16 0d be
       -0.16410094 -0.37237453 0.38633782 -0.13777976
000030 27 06 ab 3e 4c 90 8e 3e 69 39 98 3c bf b7 a5 bd
       0.3340313 0.27844465 0.018582063 -0.080916874
000040 5b a9 38 3d de fa be bd 14 dc d2 3e 7a 17 82 3e
       0.045083385 -0.09325193 0.4118353 0.25408536
000050 ce 03 a9 3e 34 d2 fa 3d 2d 6e b7 3d 5b 98 bc 3d
       0.33010715 0.12247124 0.08956561 0.09208747
000060 d0 c6 53 3e e5 ba 8a 3e 4b 18 c8 3e 43 07 80 3e
       0.2068131 0.27095714 0.39081034 0.2500554
000070 87 0c ab 3e 47 1b 46 3e 68 32 51 3d 3d 88 99 3e
       0.33407995 0.19346343 0.05107346 0.29986754
000080 67 34 21 3e 8e 28 a6 3e f7 05 95 3e fb 64 a0 3d
       0.15742646 0.32452816 0.29106113 0.078317605
000090 ac d8 3a 3e 04 6e 72 3e de cf c2 3e f4 dd 45 bc
       0.18246716 0.2367478 0.38049215 -0.0120768435
0000a0 15 a9 c8 3e 77 a6 f7 3d 81 52 bd 3e dc 20 89 3e
       0.391915 0.120922975 0.36977008 0.26782882
0000b0 25 6c ec 3e 2a 59 86 3d 32 16 a4 bd ce b4 33 3d
       0.46176258 0.065599754 -0.08012046 0.0438736
0000c0 41 83 0e 3e f1 d4 05 be 54 34 64 bf c0 82 dc 3e
       0.13917257 -0.13069512 -0.89142346 0.43068504
0000d0 95 be cf 3e 9d b3 21 3d ed 2b 8d bd cf a9 3a 3e
       0.4057509 0.039477933 -0.06893144 0.1822884
0000e0 59 b2 4b 3e 9e e4 9d 3e b4 8a cc 3d 25 bc bb 3e
       0.19892253 0.30838484 0.09987393 0.3666698
0000f0 9a 8e 80 3e e8 a4 b4 3e f3 ef bd be 90 25 a5 3e
       0.25108796 0.35282063 -0.3709713 0.3225522
000100 85 d1 55 be b0 f3 0a be 00 1a f8 3e 8e e1 8d be
       -0.20880707 -0.13569522 0.48457336 -0.27711147
000110 d8 b9 be 3e db fd 5b 3e 86 55 78 3e 40 3e 1f bd
       0.37251163 0.21483557 0.24251375 -0.038877726
000120 b1 5b cc 3e 6a 48 af be 41 83 cb 3e 0c 14 b7 3e
       0.39913705 -0.34234935 0.39748576 0.35757482
000130 48 c9 8b 3e b0 91 30 3e fd 17 dd 3d bf ff 20 bf
       0.27302003 0.17243075 0.10795591 -0.6289024
000140 8b 33 99 3d 92 3b f2 bd ce 1c 4c 3e 4b c5 d0 3e
       0.07480534 -0.118277684 0.19932863 0.40775523
000150 70 0a b5 3e 53 0c c2 bf 20 db 0c bf ab 00 87 3e
       0.35359526 -1.5160011 -0.5502186 0.26367697
000160 ea 81 12 3e e3 0e 93 3e a4 1f ce 3e 93 d3 02 3e
       0.14307371 0.28722295 0.40258515 0.12776022
000170 7d d7 35 3e 1a 58 e9 3c 7b a2 19 bf 92 24 78 3e
       0.17757984 0.028484393 -0.6001355 0.242327
000180 50 8a f3 3e 06 17 03 be fc dd d2 3e 2f 21 ba be
       0.47566462 -0.12801751 0.41184986 -0.36353442
000190 ab d9 79 3e 6f 70 90 bd 4a 0d a2 3e 0b 4b 60 be
       0.2439944 -0.07052695 0.31650764 -0.21903627
0001a0 82 ae 9e 3e e9 2d 25 bf 99 dc b6 3e 1c 39 42 bf
       0.30992514 -0.6452318 0.35715178 -0.7586839
0001b0 8a c6 f3 3e ce 2a c7 be 68 2f e2 bd 51 cd 25 bf
       0.4761241 -0.38899845 -0.11044198 -0.6476641
0001c0 47 59 d9 bd 3a c8 0a 3e 2d 7c e6 3e 69 b0 3e 3e
       -0.106127314 0.13552943 0.45016614 0.18621983
0001d0 14 46 0e 3e c5 ab 51 be 2d a4 c0 3e c0 ab 44 be
       0.1389392 -0.20475681 0.37625256 -0.19206142
0001e0 d1 e7 6e 3e 83 ff 0b 3f ab 95 97 3e aa e5 c6 3e
       0.23330618 0.54686755 0.29606375 0.38847095
0001f0 e9 90 4d 3e e6 c3 f0 be 7f c3 43 bf bd f3 85 3e
       0.2007481 -0.4702446 -0.7647018 0.2616252

fc4.bias f4 [4]
000000 a7 19 40 3f ca 19 f4 3e 82 32 0e 3f 77 c8 2f 3f
       0.7503914 0.47675925 0.5554582 0.6866526
